…
2021-10-22 15:02:03.173744: I tensorflow/core/common_runtime/gpu/gpu_device.cc:1418] Created TensorFlow device (/job:localhost/replica:0/task:0/device:GPU:0 with 6003 MB memory) -> physical GPU (device: 0, name: NVIDIA GeForce RTX 2070, pci bus id: 0000:01:00.0, compute capability: 7.5)
Model: "model"
__________________________________________________________________________________________________
Layer (type)                    Output Shape         Param #     Connected to
==================================================================================================
input_1 (InputLayer)            [(None, 384, 512, 3) 0
__________________________________________________________________________________________________
conv2d (Conv2D)                 (None, 384, 512, 16) 448         input_1[0][0]
__________________________________________________________________________________________________
batch_normalization (BatchNorma (None, 384, 512, 16) 64          conv2d[0][0]
__________________________________________________________________________________________________
leaky_re_lu (LeakyReLU)         (None, 384, 512, 16) 0           batch_normalization[0][0]
__________________________________________________________________________________________________
conv2d_1 (Conv2D)               (None, 384, 512, 16) 2320        leaky_re_lu[0][0]
__________________________________________________________________________________________________
dropout (Dropout)               (None, 384, 512, 16) 0           conv2d_1[0][0]
__________________________________________________________________________________________________
batch_normalization_1 (BatchNor (None, 384, 512, 16) 64          dropout[0][0]
__________________________________________________________________________________________________
leaky_re_lu_1 (LeakyReLU)       (None, 384, 512, 16) 0           batch_normalization_1[0][0]
__________________________________________________________________________________________________
conv2d_2 (Conv2D)               (None, 384, 512, 16) 2320        leaky_re_lu_1[0][0]
__________________________________________________________________________________________________
add (Add)                       (None, 384, 512, 16) 0           conv2d[0][0]
                                                                 conv2d_2[0][0]
__________________________________________________________________________________________________
conv2d_3 (Conv2D)               (None, 192, 256, 32) 4640        add[0][0]
__________________________________________________________________________________________________
batch_normalization_2 (BatchNor (None, 192, 256, 32) 128         conv2d_3[0][0]
__________________________________________________________________________________________________
leaky_re_lu_2 (LeakyReLU)       (None, 192, 256, 32) 0           batch_normalization_2[0][0]
__________________________________________________________________________________________________
conv2d_4 (Conv2D)               (None, 192, 256, 32) 9248        leaky_re_lu_2[0][0]
__________________________________________________________________________________________________
dropout_1 (Dropout)             (None, 192, 256, 32) 0           conv2d_4[0][0]
__________________________________________________________________________________________________
batch_normalization_3 (BatchNor (None, 192, 256, 32) 128         dropout_1[0][0]
__________________________________________________________________________________________________
leaky_re_lu_3 (LeakyReLU)       (None, 192, 256, 32) 0           batch_normalization_3[0][0]
__________________________________________________________________________________________________
conv2d_5 (Conv2D)               (None, 192, 256, 32) 9248        leaky_re_lu_3[0][0]
__________________________________________________________________________________________________
add_1 (Add)                     (None, 192, 256, 32) 0           conv2d_3[0][0]
                                                                 conv2d_5[0][0]
__________________________________________________________________________________________________
conv2d_6 (Conv2D)               (None, 96, 128, 64)  18496       add_1[0][0]
__________________________________________________________________________________________________
batch_normalization_4 (BatchNor (None, 96, 128, 64)  256         conv2d_6[0][0]
__________________________________________________________________________________________________
leaky_re_lu_4 (LeakyReLU)       (None, 96, 128, 64)  0           batch_normalization_4[0][0]
__________________________________________________________________________________________________
conv2d_7 (Conv2D)               (None, 96, 128, 64)  36928       leaky_re_lu_4[0][0]
__________________________________________________________________________________________________
dropout_2 (Dropout)             (None, 96, 128, 64)  0           conv2d_7[0][0]
__________________________________________________________________________________________________
batch_normalization_5 (BatchNor (None, 96, 128, 64)  256         dropout_2[0][0]
__________________________________________________________________________________________________
leaky_re_lu_5 (LeakyReLU)       (None, 96, 128, 64)  0           batch_normalization_5[0][0]
__________________________________________________________________________________________________
conv2d_8 (Conv2D)               (None, 96, 128, 64)  36928       leaky_re_lu_5[0][0]
__________________________________________________________________________________________________
add_2 (Add)                     (None, 96, 128, 64)  0           conv2d_6[0][0]
                                                                 conv2d_8[0][0]
__________________________________________________________________________________________________
conv2d_9 (Conv2D)               (None, 48, 64, 128)  73856       add_2[0][0]
__________________________________________________________________________________________________
batch_normalization_6 (BatchNor (None, 48, 64, 128)  512         conv2d_9[0][0]
__________________________________________________________________________________________________
leaky_re_lu_6 (LeakyReLU)       (None, 48, 64, 128)  0           batch_normalization_6[0][0]
__________________________________________________________________________________________________
conv2d_10 (Conv2D)              (None, 48, 64, 128)  147584      leaky_re_lu_6[0][0]
__________________________________________________________________________________________________
dropout_3 (Dropout)             (None, 48, 64, 128)  0           conv2d_10[0][0]
__________________________________________________________________________________________________
batch_normalization_7 (BatchNor (None, 48, 64, 128)  512         dropout_3[0][0]
__________________________________________________________________________________________________
leaky_re_lu_7 (LeakyReLU)       (None, 48, 64, 128)  0           batch_normalization_7[0][0]
__________________________________________________________________________________________________
conv2d_11 (Conv2D)              (None, 48, 64, 128)  147584      leaky_re_lu_7[0][0]
__________________________________________________________________________________________________
add_3 (Add)                     (None, 48, 64, 128)  0           conv2d_9[0][0]
                                                                 conv2d_11[0][0]
__________________________________________________________________________________________________
conv2d_12 (Conv2D)              (None, 24, 32, 256)  295168      add_3[0][0]
__________________________________________________________________________________________________
batch_normalization_8 (BatchNor (None, 24, 32, 256)  1024        conv2d_12[0][0]
__________________________________________________________________________________________________
leaky_re_lu_8 (LeakyReLU)       (None, 24, 32, 256)  0           batch_normalization_8[0][0]
__________________________________________________________________________________________________
conv2d_13 (Conv2D)              (None, 24, 32, 256)  590080      leaky_re_lu_8[0][0]
__________________________________________________________________________________________________
dropout_4 (Dropout)             (None, 24, 32, 256)  0           conv2d_13[0][0]
__________________________________________________________________________________________________
batch_normalization_9 (BatchNor (None, 24, 32, 256)  1024        dropout_4[0][0]
__________________________________________________________________________________________________
leaky_re_lu_9 (LeakyReLU)       (None, 24, 32, 256)  0           batch_normalization_9[0][0]      
__________________________________________________________________________________________________
conv2d_14 (Conv2D)              (None, 24, 32, 256)  590080      leaky_re_lu_9[0][0]
__________________________________________________________________________________________________
add_4 (Add)                     (None, 24, 32, 256)  0           conv2d_12[0][0]
                                                                 conv2d_14[0][0]
__________________________________________________________________________________________________
conv2d_transpose (Conv2DTranspo (None, 48, 64, 128)  295040      add_4[0][0]
__________________________________________________________________________________________________
leaky_re_lu_10 (LeakyReLU)      (None, 48, 64, 128)  0           conv2d_transpose[0][0]
__________________________________________________________________________________________________
concatenate (Concatenate)       (None, 48, 64, 256)  0           add_3[0][0]
                                                                 leaky_re_lu_10[0][0]
__________________________________________________________________________________________________
conv2d_15 (Conv2D)              (None, 48, 64, 128)  295040      concatenate[0][0]
__________________________________________________________________________________________________
batch_normalization_10 (BatchNo (None, 48, 64, 128)  512         conv2d_15[0][0]
__________________________________________________________________________________________________
leaky_re_lu_11 (LeakyReLU)      (None, 48, 64, 128)  0           batch_normalization_10[0][0]
__________________________________________________________________________________________________
conv2d_transpose_1 (Conv2DTrans (None, 96, 128, 64)  73792       leaky_re_lu_11[0][0]
__________________________________________________________________________________________________
leaky_re_lu_12 (LeakyReLU)      (None, 96, 128, 64)  0           conv2d_transpose_1[0][0]
__________________________________________________________________________________________________
concatenate_1 (Concatenate)     (None, 96, 128, 128) 0           add_2[0][0]
                                                                 leaky_re_lu_12[0][0]
__________________________________________________________________________________________________
conv2d_16 (Conv2D)              (None, 96, 128, 64)  73792       concatenate_1[0][0]
__________________________________________________________________________________________________
batch_normalization_11 (BatchNo (None, 96, 128, 64)  256         conv2d_16[0][0]
__________________________________________________________________________________________________
leaky_re_lu_13 (LeakyReLU)      (None, 96, 128, 64)  0           batch_normalization_11[0][0]
__________________________________________________________________________________________________
conv2d_18 (Conv2D)              (None, 96, 128, 32)  2080        leaky_re_lu_13[0][0]
__________________________________________________________________________________________________
leaky_re_lu_14 (LeakyReLU)      (None, 96, 128, 32)  0           conv2d_18[0][0]
__________________________________________________________________________________________________
conv2d_transpose_3 (Conv2DTrans (None, 192, 256, 32) 9248        leaky_re_lu_14[0][0]
__________________________________________________________________________________________________
leaky_re_lu_15 (LeakyReLU)      (None, 192, 256, 32) 0           conv2d_transpose_3[0][0]
__________________________________________________________________________________________________
concatenate_2 (Concatenate)     (None, 192, 256, 64) 0           add_1[0][0]
                                                                 leaky_re_lu_15[0][0]
__________________________________________________________________________________________________
conv2d_19 (Conv2D)              (None, 192, 256, 32) 18464       concatenate_2[0][0]
__________________________________________________________________________________________________
batch_normalization_12 (BatchNo (None, 192, 256, 32) 128         conv2d_19[0][0]
__________________________________________________________________________________________________
leaky_re_lu_16 (LeakyReLU)      (None, 192, 256, 32) 0           batch_normalization_12[0][0]
__________________________________________________________________________________________________
conv2d_transpose_5 (Conv2DTrans (None, 384, 512, 16) 4624        leaky_re_lu_16[0][0]
__________________________________________________________________________________________________
conv2d_17 (Conv2D)              (None, 96, 128, 1)   577         leaky_re_lu_13[0][0]
__________________________________________________________________________________________________
leaky_re_lu_17 (LeakyReLU)      (None, 384, 512, 16) 0           conv2d_transpose_5[0][0]
__________________________________________________________________________________________________
conv2d_transpose_2 (Conv2DTrans (None, 192, 256, 1)  10          conv2d_17[0][0]
__________________________________________________________________________________________________
conv2d_20 (Conv2D)              (None, 192, 256, 1)  289         leaky_re_lu_16[0][0]
__________________________________________________________________________________________________
concatenate_3 (Concatenate)     (None, 384, 512, 32) 0           add[0][0]
                                                                 leaky_re_lu_17[0][0]
__________________________________________________________________________________________________
add_5 (Add)                     (None, 192, 256, 1)  0           conv2d_transpose_2[0][0]
                                                                 conv2d_20[0][0]
__________________________________________________________________________________________________
conv2d_21 (Conv2D)              (None, 384, 512, 32) 9248        concatenate_3[0][0]
__________________________________________________________________________________________________
conv2d_transpose_4 (Conv2DTrans (None, 384, 512, 1)  10          add_5[0][0]
__________________________________________________________________________________________________
conv2d_22 (Conv2D)              (None, 384, 512, 1)  289         conv2d_21[0][0]
__________________________________________________________________________________________________
add_6 (Add)                     (None, 384, 512, 1)  0           conv2d_transpose_4[0][0]
                                                                 conv2d_22[0][0]
__________________________________________________________________________________________________
conv2d_23 (Conv2D)              (None, 384, 512, 1)  10          add_6[0][0]
==================================================================================================
Total params: 2,752,305
Trainable params: 2,749,873
Non-trainable params: 2,432
__________________________________________________________________________________________________
Splitting the data...
Got training set!
Generating test and validation...
Train Set Shape         : (1556, 384, 512, 3)
…
