…
2022-10-18 11:05:12.214818: I tensorflow/core/common_runtime/pluggable_device/pluggable_device_factory.cc:271] Created TensorFlow device (/job:localhost/replica:0/task:0/device:GPU:0 with 0 MB memory) -> physical PluggableDevice (device: 0, name: METAL, pci bus id: <undefined>)
Model: "model"
__________________________________________________________________________________________________
 Layer (type)                   Output Shape         Param #     Connected to
==================================================================================================
 input_1 (InputLayer)           [(None, 128)]        0           []

 input_2 (InputLayer)           [(None, 22470)]      0           []

 graph_convolution (GraphConvol  (None, 64)          8256        ['input_1[0][0]',
 ution)                                                           'input_2[0][0]']

 dropout (Dropout)              (None, 64)           0           ['graph_convolution[0][0]']

 graph_convolution_1 (GraphConv  (None, 32)          2080        ['dropout[0][0]',
 olution)                                                         'input_2[0][0]']

 dropout_1 (Dropout)            (None, 32)           0           ['graph_convolution_1[0][0]']

 graph_convolution_2 (GraphConv  (None, 16)          528         ['dropout_1[0][0]',
 olution)                                                         'input_2[0][0]']

 dropout_2 (Dropout)            (None, 16)           0           ['graph_convolution_2[0][0]']

 graph_convolution_3 (GraphConv  (None, 4)           68          ['dropout_2[0][0]',
 olution)                                                         'input_2[0][0]']

==================================================================================================
Total params: 10,932
Trainable params: 10,932
Non-trainable params: 0
__________________________________________________________________________________________________
Features data shape (22470, 128)
…
